…
2021-10-08 21:59:38.574583: I tensorflow/core/common_runtime/gpu/gpu_device.cc:1277] 0:   N 
2021-10-08 21:59:38.579281: I tensorflow/core/common_runtime/gpu/gpu_device.cc:1418] Created TensorFlow device (/job:localhost/replica:0/task:0/device:GPU:0 with 10775 MB memory) -> physical GPU (device: 0, name: Tesla K80, pci bus id: 0000:04:00.0, compute capability: 3.7)
Model: "sequential"
_________________________________________________________________
Layer (type)                 Output Shape              Param #   
=================================================================
conv3d (Conv3D)              (None, 62, 62, 62, 32)    896       
_________________________________________________________________
max_pooling3d (MaxPooling3D) (None, 31, 31, 20, 32)    0         
_________________________________________________________________
conv3d_1 (Conv3D)            (None, 29, 29, 18, 64)    55360     
_________________________________________________________________
max_pooling3d_1 (MaxPooling3 (None, 14, 14, 9, 64)     0         
_________________________________________________________________
conv3d_2 (Conv3D)            (None, 12, 12, 7, 64)     110656    
_________________________________________________________________
flatten (Flatten)            (None, 64512)             0         
_________________________________________________________________
dense (Dense)                (None, 64)                4128832   
_________________________________________________________________
dense_1 (Dense)              (None, 1)                 65        
=================================================================
Total params: 4,295,809
Trainable params: 4,295,809
Non-trainable params: 0
_________________________________________________________________
Info: Training and evaluating the network


Starting iteration 1
Batch 1 / 71
2021-10-08 21:59:47.634166: I tensorflow/compiler/mlir/mlir_graph_optimization_pass.cc:176] None of the MLIR Optimization Passes are enabled (registered 2)
…
